…
on needed a probability\n        # output\n        tf.keras.layers.Dense(10, activation = tf.nn.softmax)\n    ])\n    \n    return cnn_model\n  \ncnn_model = build_cnn_model()\n# Initialize the model by passing some data through\ncnn_model.predict(train_images[[0]])\n# Print the summary of the layers in the model.\nprint(cnn_model.summary())\nModel: \"sequential_1\"\n_________________________________________________________________\n Layer (type)                Output Shape              Param #   \n=================================================================\n conv2d (Conv2D)             (None, 28, 28, 32)        320       \n                                                                 \n max_pooling2d (MaxPooling2D  (None, 14, 14, 32)       0         \n )                                                               \n                                                                 \n conv2d_1 (Conv2D)           (None, 14, 14, 64)        18496     \n                                                                 \n max_pooling2d_1 (MaxPooling  (None, 7, 7, 64)         0         \n 2D)                                                             \n                                                                 \n flatten_1 (Flatten)         (None, 3136)              0         \n                                                                 \n dense_2 (Dense)             (None, 128)               401536    \n                                                                 \n dense_3 (Dense)             (None, 10)                1290      \n                                                                 \n=================================================================\nTotal params: 421,642\nTrainable params: 421,642\nNon-trainable params: 0\n_________________________________________________________________\ncnn_model.compile(optimizer='adam', loss='sparse_categorical_crossentropy', metrics=['accuracy'])\ncnn_model.fit(tra
…
